…
  Data(x=[277864, 1], edge_index=[2, 597970], edge_attr=[597970], y=[12000])
  undirected: True
  num graphs: 12000
  avg num_nodes/graph: 23
  num node features: 1
  num edge features: 1
  num classes: (appears to be a regression task)
Parsed RWSE PE kernel times / steps: [1, 2, 3, 4, 5, 6, 7, 8, 9, 10, 11, 12, 13, 14, 15, 16, 17, 18, 19, 20]
Precomputing Positional Encoding statistics: ['LapPE', 'RWSE'] for all graphs...
  ...estimated to be undirected: True
Done! Took 00:00:23.18
GPSModel(
  (encoder): FeatureEncoder(
    (node_encoder): Concat3NodeEncoder(
      (encoder1): TypeDictNodeEncoder(
        (encoder): Embedding(28, 100)
      )
      (encoder2): LapPENodeEncoder(
        (linear_A): Linear(in_features=2, out_features=8, bias=True)
        (pe_encoder): Sequential(
          (0): ReLU()
          (1): Linear(in_features=8, out_features=4, bias=True)
          (2): ReLU()
        )
      )
      (encoder3): RWSENodeEncoder(
        (raw_norm): BatchNorm1d(20, eps=1e-05, momentum=0.1, affine=True, track_running_stats=True)
        (pe_encoder): Linear(in_features=20, out_features=24, bias=True)
      )
    )
    (edge_encoder): TypeDictEdgeEncoder(
      (encoder): Embedding(4, 128)
    )
  )
  (layers): Sequential(
    (0): GPSLayer(
      summary: dim_h=128, local_gnn_type=CustomGatedGCN, global_model_type=Transformer, heads=16
      (local_model): GatedGCNLayer()
      (self_attn): MultiheadAttention(
        (out_proj): NonDynamicallyQuantizableLinear(in_features=128, out_features=128, bias=True)
      )
      (norm1_local): BatchNorm1d(128, eps=1e-05, momentum=0.1, affine=True, track_running_stats=True)
      (norm1_attn): BatchNorm1d(128, eps=1e-05, momentum=0.1, affine=True, track_running_stats=True)
      (dropout_local): Dropout(p=0.1, inplace=False)
      (dropout_attn): Dropout(p=0.1, inplace=False)
      (ff_linear1): Linear(in_features=128, out_features=256, bias=True)
      (ff_linear2): Linear(in_features=256, out_features=128, bias=True)
      (norm2): BatchNorm1d(128, eps=1e-05, momentum=0.1, affine=True, track_running_stats=True)
      (ff_dropout1): Dropout(p=0.1, inplace=False)
      (ff_dropout2): Dropout(p=0.1, inplace=False)
    )
    (1): GPSLayer(
      summary: dim_h=128, local_gnn_type=CustomGatedGCN, global_model_type=Transformer, heads=16
      (local_model): GatedGCNLayer()
      (self_attn): MultiheadAttention(
        (out_proj): NonDynamicallyQuantizableLinear(in_features=128, out_features=128, bias=True)
      )
      (norm1_local): BatchNorm1d(128, eps=1e-05, momentum=0.1, affine=True, track_running_stats=True)
      (norm1_attn): BatchNorm1d(128, eps=1e-05, momentum=0.1, affine=True, track_running_stats=True)
      (dropout_local): Dropout(p=0.1, inplace=False)
      (dropout_attn): Dropout(p=0.1, inplace=False)
      (ff_linear1): Linear(in_features=128, out_features=256, bias=True)
      (ff_linear2): Linear(in_features=256, out_features=128, bias=True)
      (norm2): BatchNorm1d(128, eps=1e-05, momentum=0.1, affine=True, track_running_stats=True)
      (ff_dropout1): Dropout(p=0.1, inplace=False)
      (ff_dropout2): Dropout(p=0.1, inplace=False)
    )
    (2): GPSLayer(
      summary: dim_h=128, local_gnn_type=CustomGatedGCN, global_model_type=Transformer, heads=16
      (local_model): GatedGCNLayer()
      (self_attn): MultiheadAttention(
        (out_proj): NonDynamicallyQuantizableLinear(in_features=128, out_features=128, bias=True)
      )
      (norm1_local): BatchNorm1d(128, eps=1e-05, momentum=0.1, affine=True, track_running_stats=True)
      (norm1_attn): BatchNorm1d(128, eps=1e-05, momentum=0.1, affine=True, track_running_stats=True)
      (dropout_local): Dropout(p=0.1, inplace=False)
      (dropout_attn): Dropout(p=0.1, inplace=False)
      (ff_linear1): Linear(in_features=128, out_features=256, bias=True)
      (ff_linear2): Linear(in_features=256, out_features=128, bias=True)
      (norm2): BatchNorm1d(128, eps=1e-05, momentum=0.1, affine=True, track_running_stats=True)
      (ff_dropout1): Dropout(p=0.1, inplace=False)
      (ff_dropout2): Dropout(p=0.1, inplace=False)
    )
    (3): GPSLayer(
      summary: dim_h=128, local_gnn_type=CustomGatedGCN, global_model_type=Transformer, heads=16
      (local_model): GatedGCNLayer()
      (self_attn): MultiheadAttention(
        (out_proj): NonDynamicallyQuantizableLinear(in_features=128, out_features=128, bias=True)
      )
      (norm1_local): BatchNorm1d(128, eps=1e-05, momentum=0.1, affine=True, track_running_stats=True)
      (norm1_attn): BatchNorm1d(128, eps=1e-05, momentum=0.1, affine=True, track_running_stats=True)
      (dropout_local): Dropout(p=0.1, inplace=False)
      (dropout_attn): Dropout(p=0.1, inplace=False)
      (ff_linear1): Linear(in_features=128, out_features=256, bias=True)
      (ff_linear2): Linear(in_features=256, out_features=128, bias=True)
      (norm2): BatchNorm1d(128, eps=1e-05, momentum=0.1, affine=True, track_running_stats=True)
      (ff_dropout1): Dropout(p=0.1, inplace=False)
      (ff_dropout2): Dropout(p=0.1, inplace=False)
    )
    (4): GPSLayer(
      summary: dim_h=128, local_gnn_type=CustomGatedGCN, global_model_type=Transformer, heads=16
      (local_model): GatedGCNLayer()
      (self_attn): MultiheadAttention(
        (out_proj): NonDynamicallyQuantizableLinear(in_features=128, out_features=128, bias=True)
      )
      (norm1_local): BatchNorm1d(128, eps=1e-05, momentum=0.1, affine=True, track_running_stats=True)
      (norm1_attn): BatchNorm1d(128, eps=1e-05, momentum=0.1, affine=True, track_running_stats=True)
      (dropout_local): Dropout(p=0.1, inplace=False)
      (dropout_attn): Dropout(p=0.1, inplace=False)
      (ff_linear1): Linear(in_features=128, out_features=256, bias=True)
      (ff_linear2): Linear(in_features=256, out_features=128, bias=True)
      (norm2): BatchNorm1d(128, eps=1e-05, momentum=0.1, affine=True, track_running_stats=True)
      (ff_dropout1): Dropout(p=0.1, inplace=False)
      (ff_dropout2): Dropout(p=0.1, inplace=False)
    )
    (5): GPSLayer(
      summary: dim_h=128, local_gnn_type=CustomGatedGCN, global_model_type=Transformer, heads=16
      (local_model): GatedGCNLayer()
      (self_attn): MultiheadAttention(
        (out_proj): NonDynamicallyQuantizableLinear(in_features=128, out_features=128, bias=True)
      )
      (norm1_local): BatchNorm1d(128, eps=1e-05, momentum=0.1, affine=True, track_running_stats=True)
      (norm1_attn): BatchNorm1d(128, eps=1e-05, momentum=0.1, affine=True, track_running_stats=True)
      (dropout_local): Dropout(p=0.1, inplace=False)
      (dropout_attn): Dropout(p=0.1, inplace=False)
      (ff_linear1): Linear(in_features=128, out_features=256, bias=True)
      (ff_linear2): Linear(in_features=256, out_features=128, bias=True)
      (norm2): BatchNorm1d(128, eps=1e-05, momentum=0.1, affine=True, track_running_stats=True)
      (ff_dropout1): Dropout(p=0.1, inplace=False)
      (ff_dropout2): Dropout(p=0.1, inplace=False)
    )
    (6): GPSLayer(
      summary: dim_h=128, local_gnn_type=CustomGatedGCN, global_model_type=Transformer, heads=16
      (local_model): GatedGCNLayer()
      (self_attn): MultiheadAttention(
        (out_proj): NonDynamicallyQuantizableLinear(in_features=128, out_features=128, bias=True)
      )
      (norm1_local): BatchNorm1d(128, eps=1e-05, momentum=0.1, affine=True, track_running_stats=True)
      (norm1_attn): BatchNorm1d(128, eps=1e-05, momentum=0.1, affine=True, track_running_stats=True)
      (dropout_local): Dropout(p=0.1, inplace=False)
      (dropout_attn): Dropout(p=0.1, inplace=False)
      (ff_linear1): Linear(in_features=128, out_features=256, bias=True)
      (ff_linear2): Linear(in_features=256, out_features=128, bias=True)
      (norm2): BatchNorm1d(128, eps=1e-05, momentum=0.1, affine=True, track_running_stats=True)
      (ff_dropout1): Dropout(p=0.1, inplace=False)
      (ff_dropout2): Dropout(p=0.1, inplace=False)
    )
    (7): GPSLayer(
      summary: dim_h=128, local_gnn_type=CustomGatedGCN, global_model_type=Transformer, heads=16
      (local_model): GatedGCNLayer()
      (self_attn): MultiheadAttention(
        (out_proj): NonDynamicallyQuantizableLinear(in_features=128, out_features=128, bias=True)
      )
      (norm1_local): BatchNorm1d(128, eps=1e-05, momentum=0.1, affine=True, track_running_stats=True)
      (norm1_attn): BatchNorm1d(128, eps=1e-05, momentum=0.1, affine=True, track_running_stats=True)
      (dropout_local): Dropout(p=0.1, inplace=False)
      (dropout_attn): Dropout(p=0.1, inplace=False)
      (ff_linear1): Linear(in_features=128, out_features=256, bias=True)
      (ff_linear2): Linear(in_features=256, out_features=128, bias=True)
      (norm2): BatchNorm1d(128, eps=1e-05, momentum=0.1, affine=True, track_running_stats=True)
      (ff_dropout1): Dropout(p=0.1, inplace=False)
      (ff_dropout2): Dropout(p=0.1, inplace=False)
    )
    (8): GPSLayer(
      summary: dim_h=128, local_gnn_type=CustomGatedGCN, global_model_type=Transformer, heads=16
      (local_model): GatedGCNLayer()
      (self_attn): MultiheadAttention(
        (out_proj): NonDynamicallyQuantizableLinear(in_features=128, out_features=128, bias=True)
      )
      (norm1_local): BatchNorm1d(128, eps=1e-05, momentum=0.1, affine=True, track_running_stats=True)
      (norm1_attn): BatchNorm1d(128, eps=1e-05, momentum=0.1, affine=True, track_running_stats=True)
      (dropout_local): Dropout(p=0.1, inplace=False)
      (dropout_attn): Dropout(p=0.1, inplace=False)
      (ff_linear1): Linear(in_features=128, out_features=256, bias=True)
      (ff_linear2): Linear(in_features=256, out_features=128, bias=True)
      (norm2): BatchNorm1d(128, eps=1e-05, momentum=0.1, affine=True, track_running_stats=True)
      (ff_dropout1): Dropout(p=0.1, inplace=False)
      (ff_dropout2): Dropout(p=0.1, inplace=False)
    )
    (9): GPSLayer(
      summary: dim_h=128, local_gnn_type=CustomGatedGCN, global_model_type=Transformer, heads=16
      (local_model): GatedGCNLayer()
      (self_attn): MultiheadAttention(
        (out_proj): NonDynamicallyQuantizableLinear(in_features=128, out_features=128, bias=True)
      )
      (norm1_local): BatchNorm1d(128, eps=1e-05, momentum=0.1, affine=True, track_running_stats=True)
      (norm1_attn): BatchNorm1d(128, eps=1e-05, momentum=0.1, affine=True, track_running_stats=True)
      (dropout_local): Dropout(p=0.1, inplace=False)
      (dropout_attn): Dropout(p=0.1, inplace=False)
      (ff_linear1): Linear(in_features=128, out_features=256, bias=True)
      (ff_linear2): Linear(in_features=256, out_features=128, bias=True)
      (norm2): BatchNorm1d(128, eps=1e-05, momentum=0.1, affine=True, track_running_stats=True)
      (ff_dropout1): Dropout(p=0.1, inplace=False)
      (ff_dropout2): Dropout(p=0.1, inplace=False)
    )
  )
  (post_mp): SANGraphHead(
    (FC_layers): ModuleList(
      (0): Linear(in_features=128, out_features=64, bias=True)
      (1): Linear(in_features=64, out_features=32, bias=True)
      (2): Linear(in_features=32, out_features=1, bias=True)
    )
  )
)
benchmark: False
bn:
  eps: 1e-05
  mom: 0.1
cfg_dest: config.yaml
custom_metrics: []
dataset:
  cache_load: False
  cache_save: False
  dir: ./datasets
  edge_dim: 128
  edge_encoder: True
  edge_encoder_bn: False
  edge_encoder_name: TypeDictEdge
  edge_encoder_num_types: 4
  edge_message_ratio: 0.8
  edge_negative_sampling_ratio: 1.0
  edge_train_mode: all
…
