…
  Data(edge_index=[2, 109093626], edge_attr=[109093626, 3], x=[52970652, 9], y=[3746620])
  undirected: True
  num graphs: 446405
  avg num_nodes/graph: 118
  num node features: 9
  num edge features: 3
  num classes: (appears to be a regression task)
Parsed RWSE PE kernel times / steps: [1, 2, 3, 4, 5, 6, 7, 8, 9, 10, 11, 12, 13, 14, 15, 16]
Precomputing Positional Encoding statistics: ['LapPE', 'RWSE'] for all graphs...
  ...estimated to be undirected: True
Done! Took 00:10:53.82
GPSModel(
  (encoder): FeatureEncoder(
    (node_encoder): Concat3NodeEncoder(
      (encoder1): AtomEncoder(
        (atom_embedding_list): ModuleList(
          (0): Embedding(119, 276)
          (1): Embedding(4, 276)
          (2): Embedding(12, 276)
          (3): Embedding(12, 276)
          (4): Embedding(10, 276)
          (5): Embedding(6, 276)
          (6): Embedding(6, 276)
          (7): Embedding(2, 276)
          (8): Embedding(2, 276)
        )
      )
      (encoder2): LapPENodeEncoder(
        (linear_A): Linear(in_features=2, out_features=16, bias=True)
        (pe_encoder): Sequential(
          (0): ReLU()
          (1): Linear(in_features=16, out_features=8, bias=True)
          (2): ReLU()
        )
      )
      (encoder3): RWSENodeEncoder(
        (raw_norm): BatchNorm1d(16, eps=1e-05, momentum=0.1, affine=True, track_running_stats=True)
        (pe_encoder): Linear(in_features=16, out_features=20, bias=True)
      )
    )
    (edge_encoder): BondEncoder(
      (bond_embedding_list): ModuleList(
        (0): Embedding(5, 304)
        (1): Embedding(6, 304)
        (2): Embedding(2, 304)
      )
    )
  )
  (layers): Sequential(
    (0): GPSLayer(
      summary: dim_h=304, local_gnn_type=CustomGatedGCN, global_model_type=BigBird, heads=4
      (local_model): GatedGCNLayer()
      (self_attn): SingleBigBirdLayer(
        (encoder): BigBirdEncoder(
          (layers): ModuleList(
            (0): BigBirdLayer(
              (attention): BigBirdAttention(
                (self): BigBirdBlockSparseAttention(
                  (query): Linear(in_features=304, out_features=304, bias=False)
                  (key): Linear(in_features=304, out_features=304, bias=False)
                  (value): Linear(in_features=304, out_features=304, bias=False)
                )
                (output): BigBirdSelfOutput(
                  (dense): Linear(in_features=304, out_features=304, bias=True)
                  (LayerNorm): LayerNorm((304,), eps=1e-06, elementwise_affine=True)
                  (dropout): Dropout(p=0.0, inplace=False)
                )
              )
              (intermediate): BigBirdIntermediate(
                (dense): Linear(in_features=304, out_features=304, bias=True)
                (intermediate_act_fn): ReLU()
              )
              (output): BigBirdOutput(
                (dense): Linear(in_features=304, out_features=304, bias=True)
                (LayerNorm): LayerNorm((304,), eps=1e-06, elementwise_affine=True)
                (dropout): Dropout(p=0.0, inplace=False)
              )
            )
          )
        )
      )
      (norm1_local): BatchNorm1d(304, eps=1e-05, momentum=0.1, affine=True, track_running_stats=True)
      (norm1_attn): BatchNorm1d(304, eps=1e-05, momentum=0.1, affine=True, track_running_stats=True)
      (dropout_local): Dropout(p=0.0, inplace=False)
      (dropout_attn): Dropout(p=0.0, inplace=False)
      (ff_linear1): Linear(in_features=304, out_features=608, bias=True)
      (ff_linear2): Linear(in_features=608, out_features=304, bias=True)
      (norm2): BatchNorm1d(304, eps=1e-05, momentum=0.1, affine=True, track_running_stats=True)
      (ff_dropout1): Dropout(p=0.0, inplace=False)
      (ff_dropout2): Dropout(p=0.0, inplace=False)
    )
    (1): GPSLayer(
      summary: dim_h=304, local_gnn_type=CustomGatedGCN, global_model_type=BigBird, heads=4
      (local_model): GatedGCNLayer()
      (self_attn): SingleBigBirdLayer(
        (encoder): BigBirdEncoder(
          (layers): ModuleList(
            (0): BigBirdLayer(
              (attention): BigBirdAttention(
                (self): BigBirdBlockSparseAttention(
                  (query): Linear(in_features=304, out_features=304, bias=False)
                  (key): Linear(in_features=304, out_features=304, bias=False)
                  (value): Linear(in_features=304, out_features=304, bias=False)
                )
                (output): BigBirdSelfOutput(
                  (dense): Linear(in_features=304, out_features=304, bias=True)
                  (LayerNorm): LayerNorm((304,), eps=1e-06, elementwise_affine=True)
                  (dropout): Dropout(p=0.0, inplace=False)
                )
              )
              (intermediate): BigBirdIntermediate(
                (dense): Linear(in_features=304, out_features=304, bias=True)
                (intermediate_act_fn): ReLU()
              )
              (output): BigBirdOutput(
                (dense): Linear(in_features=304, out_features=304, bias=True)
                (LayerNorm): LayerNorm((304,), eps=1e-06, elementwise_affine=True)
                (dropout): Dropout(p=0.0, inplace=False)
              )
            )
          )
        )
      )
      (norm1_local): BatchNorm1d(304, eps=1e-05, momentum=0.1, affine=True, track_running_stats=True)
      (norm1_attn): BatchNorm1d(304, eps=1e-05, momentum=0.1, affine=True, track_running_stats=True)
      (dropout_local): Dropout(p=0.0, inplace=False)
      (dropout_attn): Dropout(p=0.0, inplace=False)
      (ff_linear1): Linear(in_features=304, out_features=608, bias=True)
      (ff_linear2): Linear(in_features=608, out_features=304, bias=True)
      (norm2): BatchNorm1d(304, eps=1e-05, momentum=0.1, affine=True, track_running_stats=True)
      (ff_dropout1): Dropout(p=0.0, inplace=False)
      (ff_dropout2): Dropout(p=0.0, inplace=False)
    )
    (2): GPSLayer(
      summary: dim_h=304, local_gnn_type=CustomGatedGCN, global_model_type=BigBird, heads=4
      (local_model): GatedGCNLayer()
      (self_attn): SingleBigBirdLayer(
        (encoder): BigBirdEncoder(
          (layers): ModuleList(
            (0): BigBirdLayer(
              (attention): BigBirdAttention(
                (self): BigBirdBlockSparseAttention(
                  (query): Linear(in_features=304, out_features=304, bias=False)
                  (key): Linear(in_features=304, out_features=304, bias=False)
                  (value): Linear(in_features=304, out_features=304, bias=False)
                )
                (output): BigBirdSelfOutput(
                  (dense): Linear(in_features=304, out_features=304, bias=True)
                  (LayerNorm): LayerNorm((304,), eps=1e-06, elementwise_affine=True)
                  (dropout): Dropout(p=0.0, inplace=False)
                )
              )
              (intermediate): BigBirdIntermediate(
                (dense): Linear(in_features=304, out_features=304, bias=True)
                (intermediate_act_fn): ReLU()
              )
              (output): BigBirdOutput(
                (dense): Linear(in_features=304, out_features=304, bias=True)
                (LayerNorm): LayerNorm((304,), eps=1e-06, elementwise_affine=True)
                (dropout): Dropout(p=0.0, inplace=False)
              )
            )
          )
        )
      )
      (norm1_local): BatchNorm1d(304, eps=1e-05, momentum=0.1, affine=True, track_running_stats=True)
      (norm1_attn): BatchNorm1d(304, eps=1e-05, momentum=0.1, affine=True, track_running_stats=True)
      (dropout_local): Dropout(p=0.0, inplace=False)
      (dropout_attn): Dropout(p=0.0, inplace=False)
      (ff_linear1): Linear(in_features=304, out_features=608, bias=True)
      (ff_linear2): Linear(in_features=608, out_features=304, bias=True)
      (norm2): BatchNorm1d(304, eps=1e-05, momentum=0.1, affine=True, track_running_stats=True)
      (ff_dropout1): Dropout(p=0.0, inplace=False)
      (ff_dropout2): Dropout(p=0.0, inplace=False)
    )
    (3): GPSLayer(
      summary: dim_h=304, local_gnn_type=CustomGatedGCN, global_model_type=BigBird, heads=4
      (local_model): GatedGCNLayer()
      (self_attn): SingleBigBirdLayer(
        (encoder): BigBirdEncoder(
          (layers): ModuleList(
            (0): BigBirdLayer(
              (attention): BigBirdAttention(
                (self): BigBirdBlockSparseAttention(
                  (query): Linear(in_features=304, out_features=304, bias=False)
                  (key): Linear(in_features=304, out_features=304, bias=False)
                  (value): Linear(in_features=304, out_features=304, bias=False)
                )
                (output): BigBirdSelfOutput(
                  (dense): Linear(in_features=304, out_features=304, bias=True)
                  (LayerNorm): LayerNorm((304,), eps=1e-06, elementwise_affine=True)
                  (dropout): Dropout(p=0.0, inplace=False)
                )
              )
              (intermediate): BigBirdIntermediate(
                (dense): Linear(in_features=304, out_features=304, bias=True)
                (intermediate_act_fn): ReLU()
              )
              (output): BigBirdOutput(
                (dense): Linear(in_features=304, out_features=304, bias=True)
                (LayerNorm): LayerNorm((304,), eps=1e-06, elementwise_affine=True)
                (dropout): Dropout(p=0.0, inplace=False)
              )
            )
          )
        )
      )
      (norm1_local): BatchNorm1d(304, eps=1e-05, momentum=0.1, affine=True, track_running_stats=True)
      (norm1_attn): BatchNorm1d(304, eps=1e-05, momentum=0.1, affine=True, track_running_stats=True)
      (dropout_local): Dropout(p=0.0, inplace=False)
      (dropout_attn): Dropout(p=0.0, inplace=False)
      (ff_linear1): Linear(in_features=304, out_features=608, bias=True)
      (ff_linear2): Linear(in_features=608, out_features=304, bias=True)
      (norm2): BatchNorm1d(304, eps=1e-05, momentum=0.1, affine=True, track_running_stats=True)
      (ff_dropout1): Dropout(p=0.0, inplace=False)
      (ff_dropout2): Dropout(p=0.0, inplace=False)
    )
    (4): GPSLayer(
      summary: dim_h=304, local_gnn_type=CustomGatedGCN, global_model_type=BigBird, heads=4
      (local_model): GatedGCNLayer()
      (self_attn): SingleBigBirdLayer(
        (encoder): BigBirdEncoder(
          (layers): ModuleList(
            (0): BigBirdLayer(
              (attention): BigBirdAttention(
                (self): BigBirdBlockSparseAttention(
                  (query): Linear(in_features=304, out_features=304, bias=False)
                  (key): Linear(in_features=304, out_features=304, bias=False)
                  (value): Linear(in_features=304, out_features=304, bias=False)
                )
                (output): BigBirdSelfOutput(
                  (dense): Linear(in_features=304, out_features=304, bias=True)
                  (LayerNorm): LayerNorm((304,), eps=1e-06, elementwise_affine=True)
                  (dropout): Dropout(p=0.0, inplace=False)
                )
              )
              (intermediate): BigBirdIntermediate(
                (dense): Linear(in_features=304, out_features=304, bias=True)
                (intermediate_act_fn): ReLU()
              )
              (output): BigBirdOutput(
                (dense): Linear(in_features=304, out_features=304, bias=True)
                (LayerNorm): LayerNorm((304,), eps=1e-06, elementwise_affine=True)
                (dropout): Dropout(p=0.0, inplace=False)
              )
            )
          )
        )
      )
      (norm1_local): BatchNorm1d(304, eps=1e-05, momentum=0.1, affine=True, track_running_stats=True)
      (norm1_attn): BatchNorm1d(304, eps=1e-05, momentum=0.1, affine=True, track_running_stats=True)
      (dropout_local): Dropout(p=0.0, inplace=False)
      (dropout_attn): Dropout(p=0.0, inplace=False)
      (ff_linear1): Linear(in_features=304, out_features=608, bias=True)
      (ff_linear2): Linear(in_features=608, out_features=304, bias=True)
      (norm2): BatchNorm1d(304, eps=1e-05, momentum=0.1, affine=True, track_running_stats=True)
      (ff_dropout1): Dropout(p=0.0, inplace=False)
      (ff_dropout2): Dropout(p=0.0, inplace=False)
    )
  )
  (post_mp): SANGraphHead(
    (FC_layers): ModuleList(
      (0): Linear(in_features=304, out_features=152, bias=True)
      (1): Linear(in_features=152, out_features=76, bias=True)
      (2): Linear(in_features=76, out_features=1, bias=True)
    )
  )
)
benchmark: False
bn:
  eps: 1e-05
  mom: 0.1
cfg_dest: config.yaml
custom_metrics: []
dataset:
  cache_load: False
  cache_save: False
  dir: ./datasets
  edge_dim: 128
  edge_encoder: True
  edge_encoder_bn: False
  edge_encoder_name: Bond
  edge_encoder_num_types: 0
  edge_message_ratio: 0.8
  edge_negative_sampling_ratio: 1.0
  edge_train_mode: all
…
